
3
Found 5984 images belonging to 3 classes.
Found 1490 images belonging to 3 classes.

Model: "sequential"
_________________________________________________________________
Layer (type)                 Output Shape              Param #   
=================================================================
xception (Functional)        (None, 5, 5, 2048)        20861480  
_________________________________________________________________
flatten (Flatten)            (None, 51200)             0         
_________________________________________________________________
dropout (Dropout)            (None, 51200)             0         
_________________________________________________________________
dense (Dense)                (None, 256)               13107456  
_________________________________________________________________
dense_1 (Dense)              (None, 3)                 771       
=================================================================
Total params: 33,969,707
Trainable params: 33,915,179
Non-trainable params: 54,528
_________________________________________________________________
------------------------------------------------------------------------
Training for fold1

Epoch 1/12
748/748 [==============================] - 318s 416ms/step - loss: 0.6071 - acc: 0.7839
…
