…
2021-05-18 23:10:09.521475: I tensorflow/core/common_runtime/gpu/gpu_device.cc:1406] Created TensorFlow device (/job:localhost/replica:0/task:0/device:GPU:0 with 1342 MB memory) -> physical GPU (device: 0, name: NVIDIA GeForce MX250, pci bus id: 0000:02:00.0, compute capability: 6.1)
2021-05-18 23:10:09.522578: I tensorflow/compiler/jit/xla_gpu_device.cc:99] Not creating XLA devices, tf_xla_enable_xla_devices not set
Model: "sequential"
_________________________________________________________________
Layer (type)                 Output Shape              Param #   
=================================================================
batch_normalization (BatchNo (None, 224, 224, 3)       12        
_________________________________________________________________
conv2d (Conv2D)              (None, 224, 224, 64)      1792      
_________________________________________________________________
max_pooling2d (MaxPooling2D) (None, 112, 112, 64)      0         
_________________________________________________________________
dropout (Dropout)            (None, 112, 112, 64)      0         
_________________________________________________________________
conv2d_1 (Conv2D)            (None, 110, 110, 32)      18464     
_________________________________________________________________
max_pooling2d_1 (MaxPooling2 (None, 55, 55, 32)        0         
_________________________________________________________________
dropout_1 (Dropout)          (None, 55, 55, 32)        0         
_________________________________________________________________
flatten (Flatten)            (None, 96800)             0         
_________________________________________________________________
dense (Dense)                (None, 128)               12390528  
_________________________________________________________________
dropout_2 (Dropout)          (None, 128)               0         
_________________________________________________________________
dense_1 (Dense)              (None, 3)                 387       
=================================================================
Total params: 12,411,183
Trainable params: 12,411,177
Non-trainable params: 6
_________________________________________________________________
------------------------------------------------------------------------
Training for fold1
C:\Users\Daniel-PC\PycharmProjects\cnn\venv\lib\site-packages\keras_preprocessing\image\image_data_generator.py:720: UserWarning: This ImageDataGenerator specifies `featurewise_center`, but it hasn't been fit on any training data. Fit it first by calling `.fit(numpy_data)`.
…
