…
C:\Users\Daniel-PC\PycharmProjects\cnn\venv\lib\site-packages\keras_preprocessing\image\image_data_generator.py:349: UserWarning: This ImageDataGenerator specifies `featurewise_std_normalization`, which overrides setting of `featurewise_center`.
  warnings.warn('This ImageDataGenerator specifies '
Found 5984 images belonging to 3 classes.
Found 1490 images belonging to 3 classes.

Model: "sequential"
_________________________________________________________________
Layer (type)                 Output Shape              Param #   
=================================================================
conv2d (Conv2D)              (None, 150, 150, 32)      896       
_________________________________________________________________
batch_normalization (BatchNo (None, 150, 150, 32)      128       
_________________________________________________________________
max_pooling2d (MaxPooling2D) (None, 75, 75, 32)        0         
_________________________________________________________________
conv2d_1 (Conv2D)            (None, 75, 75, 64)        18496     
_________________________________________________________________
dropout (Dropout)            (None, 75, 75, 64)        0         
_________________________________________________________________
batch_normalization_1 (Batch (None, 75, 75, 64)        256       
_________________________________________________________________
max_pooling2d_1 (MaxPooling2 (None, 38, 38, 64)        0         
_________________________________________________________________
conv2d_2 (Conv2D)            (None, 38, 38, 64)        36928     
_________________________________________________________________
batch_normalization_2 (Batch (None, 38, 38, 64)        256       
_________________________________________________________________
max_pooling2d_2 (MaxPooling2 (None, 19, 19, 64)        0         
_________________________________________________________________
conv2d_3 (Conv2D)            (None, 19, 19, 128)       73856     
_________________________________________________________________
dropout_1 (Dropout)          (None, 19, 19, 128)       0         
_________________________________________________________________
batch_normalization_3 (Batch (None, 19, 19, 128)       512       
_________________________________________________________________
max_pooling2d_3 (MaxPooling2 (None, 10, 10, 128)       0         
_________________________________________________________________
conv2d_4 (Conv2D)            (None, 10, 10, 256)       295168    
_________________________________________________________________
dropout_2 (Dropout)          (None, 10, 10, 256)       0         
_________________________________________________________________
batch_normalization_4 (Batch (None, 10, 10, 256)       1024      
_________________________________________________________________
max_pooling2d_4 (MaxPooling2 (None, 5, 5, 256)         0         
_________________________________________________________________
flatten (Flatten)            (None, 6400)              0         
_________________________________________________________________
dense (Dense)                (None, 128)               819328    
_________________________________________________________________
dropout_3 (Dropout)          (None, 128)               0         
_________________________________________________________________
dense_1 (Dense)              (None, 3)                 387       
=================================================================
Total params: 1,247,235
Trainable params: 1,246,147
Non-trainable params: 1,088
_________________________________________________________________
------------------------------------------------------------------------
Training for fold1

Epoch 1/12
748/748 [==============================] - 120s 158ms/step - loss: 0.7490 - acc: 0.7357
…
