…
C:\Users\Daniel-PC\PycharmProjects\cnn\venv\lib\site-packages\keras_preprocessing\image\image_data_generator.py:349: UserWarning: This ImageDataGenerator specifies `featurewise_std_normalization`, which overrides setting of `featurewise_center`.
  warnings.warn('This ImageDataGenerator specifies '
3
Found 5984 images belonging to 3 classes.
Found 1490 images belonging to 3 classes.

Model: "sequential"
_________________________________________________________________
Layer (type)                 Output Shape              Param #   
=================================================================
conv2d (Conv2D)              (None, 256, 256, 8)       224       
_________________________________________________________________
batch_normalization (BatchNo (None, 256, 256, 8)       32        
_________________________________________________________________
leaky_re_lu (LeakyReLU)      (None, 256, 256, 8)       0         
_________________________________________________________________
max_pooling2d (MaxPooling2D) (None, 128, 128, 8)       0         
_________________________________________________________________
conv2d_1 (Conv2D)            (None, 128, 128, 16)      1168      
_________________________________________________________________
batch_normalization_1 (Batch (None, 128, 128, 16)      64        
_________________________________________________________________
leaky_re_lu_1 (LeakyReLU)    (None, 128, 128, 16)      0         
_________________________________________________________________
max_pooling2d_1 (MaxPooling2 (None, 64, 64, 16)        0         
_________________________________________________________________
conv2d_2 (Conv2D)            (None, 64, 64, 32)        4640      
_________________________________________________________________
batch_normalization_2 (Batch (None, 64, 64, 32)        128       
_________________________________________________________________
leaky_re_lu_2 (LeakyReLU)    (None, 64, 64, 32)        0         
_________________________________________________________________
conv2d_3 (Conv2D)            (None, 64, 64, 16)        4624      
_________________________________________________________________
batch_normalization_3 (Batch (None, 64, 64, 16)        64        
_________________________________________________________________
leaky_re_lu_3 (LeakyReLU)    (None, 64, 64, 16)        0         
_________________________________________________________________
conv2d_4 (Conv2D)            (None, 64, 64, 32)        4640      
_________________________________________________________________
batch_normalization_4 (Batch (None, 64, 64, 32)        128       
_________________________________________________________________
leaky_re_lu_4 (LeakyReLU)    (None, 64, 64, 32)        0         
_________________________________________________________________
max_pooling2d_2 (MaxPooling2 (None, 32, 32, 32)        0         
_________________________________________________________________
conv2d_5 (Conv2D)            (None, 32, 32, 64)        18496     
_________________________________________________________________
batch_normalization_5 (Batch (None, 32, 32, 64)        256       
_________________________________________________________________
leaky_re_lu_5 (LeakyReLU)    (None, 32, 32, 64)        0         
_________________________________________________________________
conv2d_6 (Conv2D)            (None, 32, 32, 32)        18464     
_________________________________________________________________
batch_normalization_6 (Batch (None, 32, 32, 32)        128       
_________________________________________________________________
leaky_re_lu_6 (LeakyReLU)    (None, 32, 32, 32)        0         
_________________________________________________________________
conv2d_7 (Conv2D)            (None, 32, 32, 64)        18496     
_________________________________________________________________
batch_normalization_7 (Batch (None, 32, 32, 64)        256       
_________________________________________________________________
leaky_re_lu_7 (LeakyReLU)    (None, 32, 32, 64)        0         
_________________________________________________________________
max_pooling2d_3 (MaxPooling2 (None, 16, 16, 64)        0         
_________________________________________________________________
conv2d_8 (Conv2D)            (None, 16, 16, 128)       73856     
_________________________________________________________________
batch_normalization_8 (Batch (None, 16, 16, 128)       512       
_________________________________________________________________
leaky_re_lu_8 (LeakyReLU)    (None, 16, 16, 128)       0         
_________________________________________________________________
conv2d_9 (Conv2D)            (None, 16, 16, 64)        73792     
_________________________________________________________________
batch_normalization_9 (Batch (None, 16, 16, 64)        256       
_________________________________________________________________
leaky_re_lu_9 (LeakyReLU)    (None, 16, 16, 64)        0         
_________________________________________________________________
conv2d_10 (Conv2D)           (None, 16, 16, 128)       73856     
_________________________________________________________________
batch_normalization_10 (Batc (None, 16, 16, 128)       512       
_________________________________________________________________
leaky_re_lu_10 (LeakyReLU)   (None, 16, 16, 128)       0         
_________________________________________________________________
max_pooling2d_4 (MaxPooling2 (None, 8, 8, 128)         0         
_________________________________________________________________
conv2d_11 (Conv2D)           (None, 8, 8, 256)         295168    
_________________________________________________________________
batch_normalization_11 (Batc (None, 8, 8, 256)         1024      
_________________________________________________________________
leaky_re_lu_11 (LeakyReLU)   (None, 8, 8, 256)         0         
_________________________________________________________________
conv2d_12 (Conv2D)           (None, 8, 8, 128)         295040    
_________________________________________________________________
batch_normalization_12 (Batc (None, 8, 8, 128)         512       
_________________________________________________________________
leaky_re_lu_12 (LeakyReLU)   (None, 8, 8, 128)         0         
_________________________________________________________________
conv2d_13 (Conv2D)           (None, 8, 8, 256)         295168    
_________________________________________________________________
batch_normalization_13 (Batc (None, 8, 8, 256)         1024      
_________________________________________________________________
leaky_re_lu_13 (LeakyReLU)   (None, 8, 8, 256)         0         
_________________________________________________________________
conv2d_14 (Conv2D)           (None, 8, 8, 128)         295040    
_________________________________________________________________
batch_normalization_14 (Batc (None, 8, 8, 128)         512       
_________________________________________________________________
leaky_re_lu_14 (LeakyReLU)   (None, 8, 8, 128)         0         
_________________________________________________________________
conv2d_15 (Conv2D)           (None, 8, 8, 256)         295168    
_________________________________________________________________
batch_normalization_15 (Batc (None, 8, 8, 256)         1024      
_________________________________________________________________
leaky_re_lu_15 (LeakyReLU)   (None, 8, 8, 256)         0         
_________________________________________________________________
conv2d_16 (Conv2D)           (None, 8, 8, 3)           6915      
_________________________________________________________________
batch_normalization_16 (Batc (None, 8, 8, 3)           12        
_________________________________________________________________
flatten (Flatten)            (None, 192)               0         
_________________________________________________________________
dense (Dense)                (None, 3)                 579       
_________________________________________________________________
dense_1 (Dense)              (None, 3)                 12        
=================================================================
Total params: 1,781,790
Trainable params: 1,778,568
Non-trainable params: 3,222
_________________________________________________________________
------------------------------------------------------------------------
Training for fold1

Epoch 1/12
748/748 [==============================] - 178s 234ms/step - loss: 0.6454 - acc: 0.7463
…
