…
2021-08-03 17:14:47.888820: I tensorflow/core/common_runtime/gpu/gpu_device.cc:1406] Created TensorFlow device (/job:localhost/replica:0/task:0/device:GPU:0 with 1342 MB memory) -> physical GPU (device: 0, name: NVIDIA GeForce MX250, pci bus id: 0000:02:00.0, compute capability: 6.1)
2021-08-03 17:14:47.890163: I tensorflow/compiler/jit/xla_gpu_device.cc:99] Not creating XLA devices, tf_xla_enable_xla_devices not set
Model: "sequential"
_________________________________________________________________
Layer (type)                 Output Shape              Param #   
=================================================================
conv2d (Conv2D)              (None, 150, 150, 32)      896       
_________________________________________________________________
batch_normalization (BatchNo (None, 150, 150, 32)      128       
_________________________________________________________________
max_pooling2d (MaxPooling2D) (None, 75, 75, 32)        0         
_________________________________________________________________
conv2d_1 (Conv2D)            (None, 75, 75, 64)        18496     
_________________________________________________________________
dropout (Dropout)            (None, 75, 75, 64)        0         
_________________________________________________________________
batch_normalization_1 (Batch (None, 75, 75, 64)        256       
_________________________________________________________________
max_pooling2d_1 (MaxPooling2 (None, 38, 38, 64)        0         
_________________________________________________________________
conv2d_2 (Conv2D)            (None, 38, 38, 64)        36928     
_________________________________________________________________
batch_normalization_2 (Batch (None, 38, 38, 64)        256       
_________________________________________________________________
max_pooling2d_2 (MaxPooling2 (None, 19, 19, 64)        0         
_________________________________________________________________
conv2d_3 (Conv2D)            (None, 19, 19, 128)       73856     
_________________________________________________________________
dropout_1 (Dropout)          (None, 19, 19, 128)       0         
_________________________________________________________________
batch_normalization_3 (Batch (None, 19, 19, 128)       512       
_________________________________________________________________
max_pooling2d_3 (MaxPooling2 (None, 10, 10, 128)       0         
_________________________________________________________________
conv2d_4 (Conv2D)            (None, 10, 10, 256)       295168    
_________________________________________________________________
dropout_2 (Dropout)          (None, 10, 10, 256)       0         
_________________________________________________________________
batch_normalization_4 (Batch (None, 10, 10, 256)       1024      
_________________________________________________________________
max_pooling2d_4 (MaxPooling2 (None, 5, 5, 256)         0         
_________________________________________________________________
flatten (Flatten)            (None, 6400)              0         
_________________________________________________________________
dense (Dense)                (None, 128)               819328    
_________________________________________________________________
dropout_3 (Dropout)          (None, 128)               0         
_________________________________________________________________
dense_1 (Dense)              (None, 3)                 387       
=================================================================
Total params: 1,247,235
Trainable params: 1,246,147
Non-trainable params: 1,088
_________________________________________________________________
------------------------------------------------------------------------
Training for fold1
C:\Users\Daniel-PC\PycharmProjects\cnn\venv\lib\site-packages\keras_preprocessing\image\image_data_generator.py:720: UserWarning: This ImageDataGenerator specifies `featurewise_center`, but it hasn't been fit on any training data. Fit it first by calling `.fit(numpy_data)`.
…
