…
C:\Users\Daniel-PC\PycharmProjects\cnn\venv\lib\site-packages\keras_preprocessing\image\image_data_generator.py:349: UserWarning: This ImageDataGenerator specifies `featurewise_std_normalization`, which overrides setting of `featurewise_center`.
  warnings.warn('This ImageDataGenerator specifies '
Found 5984 images belonging to 3 classes.
Found 1490 images belonging to 3 classes.

Model: "densenet-tiny-A"
__________________________________________________________________________________________________
Layer (type)                    Output Shape         Param #     Connected to                     
==================================================================================================
input_1 (InputLayer)            [(None, 224, 224, 3) 0                                            
__________________________________________________________________________________________________
zero_padding2d (ZeroPadding2D)  (None, 230, 230, 3)  0           input_1[0][0]                    
__________________________________________________________________________________________________
conv1/conv (Conv2D)             (None, 112, 112, 64) 9408        zero_padding2d[0][0]             
__________________________________________________________________________________________________
conv1/bn (BatchNormalization)   (None, 112, 112, 64) 256         conv1/conv[0][0]                 
__________________________________________________________________________________________________
conv1/relu (Activation)         (None, 112, 112, 64) 0           conv1/bn[0][0]                   
__________________________________________________________________________________________________
zero_padding2d_1 (ZeroPadding2D (None, 114, 114, 64) 0           conv1/relu[0][0]                 
__________________________________________________________________________________________________
pool1 (MaxPooling2D)            (None, 56, 56, 64)   0           zero_padding2d_1[0][0]           
__________________________________________________________________________________________________
conv2_block1_0_bn (BatchNormali (None, 56, 56, 64)   256         pool1[0][0]                      
__________________________________________________________________________________________________
conv2_block1_0_relu (Activation (None, 56, 56, 64)   0           conv2_block1_0_bn[0][0]          
__________________________________________________________________________________________________
conv2_block1_1_conv (Conv2D)    (None, 56, 56, 128)  8192        conv2_block1_0_relu[0][0]        
__________________________________________________________________________________________________
conv2_block1_1_bn (BatchNormali (None, 56, 56, 128)  512         conv2_block1_1_conv[0][0]        
__________________________________________________________________________________________________
conv2_block1_1_relu (Activation (None, 56, 56, 128)  0           conv2_block1_1_bn[0][0]          
__________________________________________________________________________________________________
conv2_block1_2_conv (Conv2D)    (None, 56, 56, 32)   36864       conv2_block1_1_relu[0][0]        
__________________________________________________________________________________________________
conv2_block1_concat (Concatenat (None, 56, 56, 96)   0           pool1[0][0]                      
                                                                 conv2_block1_2_conv[0][0]        
__________________________________________________________________________________________________
conv2_block2_0_bn (BatchNormali (None, 56, 56, 96)   384         conv2_block1_concat[0][0]        
__________________________________________________________________________________________________
conv2_block2_0_relu (Activation (None, 56, 56, 96)   0           conv2_block2_0_bn[0][0]          
__________________________________________________________________________________________________
conv2_block2_1_conv (Conv2D)    (None, 56, 56, 128)  12288       conv2_block2_0_relu[0][0]        
__________________________________________________________________________________________________
conv2_block2_1_bn (BatchNormali (None, 56, 56, 128)  512         conv2_block2_1_conv[0][0]        
__________________________________________________________________________________________________
conv2_block2_1_relu (Activation (None, 56, 56, 128)  0           conv2_block2_1_bn[0][0]          
__________________________________________________________________________________________________
conv2_block2_2_conv (Conv2D)    (None, 56, 56, 32)   36864       conv2_block2_1_relu[0][0]        
__________________________________________________________________________________________________
conv2_block2_concat (Concatenat (None, 56, 56, 128)  0           conv2_block1_concat[0][0]        
                                                                 conv2_block2_2_conv[0][0]        
__________________________________________________________________________________________________
conv2_block3_0_bn (BatchNormali (None, 56, 56, 128)  512         conv2_block2_concat[0][0]        
__________________________________________________________________________________________________
conv2_block3_0_relu (Activation (None, 56, 56, 128)  0           conv2_block3_0_bn[0][0]          
__________________________________________________________________________________________________
conv2_block3_1_conv (Conv2D)    (None, 56, 56, 128)  16384       conv2_block3_0_relu[0][0]        
__________________________________________________________________________________________________
conv2_block3_1_bn (BatchNormali (None, 56, 56, 128)  512         conv2_block3_1_conv[0][0]        
__________________________________________________________________________________________________
conv2_block3_1_relu (Activation (None, 56, 56, 128)  0           conv2_block3_1_bn[0][0]          
__________________________________________________________________________________________________
conv2_block3_2_conv (Conv2D)    (None, 56, 56, 32)   36864       conv2_block3_1_relu[0][0]        
__________________________________________________________________________________________________
conv2_block3_concat (Concatenat (None, 56, 56, 160)  0           conv2_block2_concat[0][0]        
                                                                 conv2_block3_2_conv[0][0]        
__________________________________________________________________________________________________
conv2_block4_0_bn (BatchNormali (None, 56, 56, 160)  640         conv2_block3_concat[0][0]        
__________________________________________________________________________________________________
conv2_block4_0_relu (Activation (None, 56, 56, 160)  0           conv2_block4_0_bn[0][0]          
__________________________________________________________________________________________________
conv2_block4_1_conv (Conv2D)    (None, 56, 56, 128)  20480       conv2_block4_0_relu[0][0]        
__________________________________________________________________________________________________
conv2_block4_1_bn (BatchNormali (None, 56, 56, 128)  512         conv2_block4_1_conv[0][0]        
__________________________________________________________________________________________________
conv2_block4_1_relu (Activation (None, 56, 56, 128)  0           conv2_block4_1_bn[0][0]          
__________________________________________________________________________________________________
conv2_block4_2_conv (Conv2D)    (None, 56, 56, 32)   36864       conv2_block4_1_relu[0][0]        
__________________________________________________________________________________________________
conv2_block4_concat (Concatenat (None, 56, 56, 192)  0           conv2_block3_concat[0][0]        
                                                                 conv2_block4_2_conv[0][0]        
__________________________________________________________________________________________________
conv2_block5_0_bn (BatchNormali (None, 56, 56, 192)  768         conv2_block4_concat[0][0]        
__________________________________________________________________________________________________
conv2_block5_0_relu (Activation (None, 56, 56, 192)  0           conv2_block5_0_bn[0][0]          
__________________________________________________________________________________________________
conv2_block5_1_conv (Conv2D)    (None, 56, 56, 128)  24576       conv2_block5_0_relu[0][0]        
__________________________________________________________________________________________________
conv2_block5_1_bn (BatchNormali (None, 56, 56, 128)  512         conv2_block5_1_conv[0][0]        
__________________________________________________________________________________________________
conv2_block5_1_relu (Activation (None, 56, 56, 128)  0           conv2_block5_1_bn[0][0]          
__________________________________________________________________________________________________
conv2_block5_2_conv (Conv2D)    (None, 56, 56, 32)   36864       conv2_block5_1_relu[0][0]        
__________________________________________________________________________________________________
conv2_block5_concat (Concatenat (None, 56, 56, 224)  0           conv2_block4_concat[0][0]        
                                                                 conv2_block5_2_conv[0][0]        
__________________________________________________________________________________________________
conv2_block6_0_bn (BatchNormali (None, 56, 56, 224)  896         conv2_block5_concat[0][0]        
__________________________________________________________________________________________________
conv2_block6_0_relu (Activation (None, 56, 56, 224)  0           conv2_block6_0_bn[0][0]          
__________________________________________________________________________________________________
conv2_block6_1_conv (Conv2D)    (None, 56, 56, 128)  28672       conv2_block6_0_relu[0][0]        
__________________________________________________________________________________________________
conv2_block6_1_bn (BatchNormali (None, 56, 56, 128)  512         conv2_block6_1_conv[0][0]        
__________________________________________________________________________________________________
conv2_block6_1_relu (Activation (None, 56, 56, 128)  0           conv2_block6_1_bn[0][0]          
__________________________________________________________________________________________________
conv2_block6_2_conv (Conv2D)    (None, 56, 56, 32)   36864       conv2_block6_1_relu[0][0]        
__________________________________________________________________________________________________
conv2_block6_concat (Concatenat (None, 56, 56, 256)  0           conv2_block5_concat[0][0]        
                                                                 conv2_block6_2_conv[0][0]        
__________________________________________________________________________________________________
pool2_bn (BatchNormalization)   (None, 56, 56, 256)  1024        conv2_block6_concat[0][0]        
__________________________________________________________________________________________________
pool2_relu (Activation)         (None, 56, 56, 256)  0           pool2_bn[0][0]                   
__________________________________________________________________________________________________
pool2_conv (Conv2D)             (None, 56, 56, 128)  32768       pool2_relu[0][0]                 
__________________________________________________________________________________________________
pool2_pool (AveragePooling2D)   (None, 28, 28, 128)  0           pool2_conv[0][0]                 
__________________________________________________________________________________________________
conv3_block1_0_bn (BatchNormali (None, 28, 28, 128)  512         pool2_pool[0][0]                 
__________________________________________________________________________________________________
conv3_block1_0_relu (Activation (None, 28, 28, 128)  0           conv3_block1_0_bn[0][0]          
__________________________________________________________________________________________________
conv3_block1_1_conv (Conv2D)    (None, 28, 28, 128)  16384       conv3_block1_0_relu[0][0]        
__________________________________________________________________________________________________
conv3_block1_1_bn (BatchNormali (None, 28, 28, 128)  512         conv3_block1_1_conv[0][0]        
__________________________________________________________________________________________________
conv3_block1_1_relu (Activation (None, 28, 28, 128)  0           conv3_block1_1_bn[0][0]          
__________________________________________________________________________________________________
conv3_block1_2_conv (Conv2D)    (None, 28, 28, 32)   36864       conv3_block1_1_relu[0][0]        
__________________________________________________________________________________________________
conv3_block1_concat (Concatenat (None, 28, 28, 160)  0           pool2_pool[0][0]                 
                                                                 conv3_block1_2_conv[0][0]        
__________________________________________________________________________________________________
conv3_block2_0_bn (BatchNormali (None, 28, 28, 160)  640         conv3_block1_concat[0][0]        
__________________________________________________________________________________________________
conv3_block2_0_relu (Activation (None, 28, 28, 160)  0           conv3_block2_0_bn[0][0]          
__________________________________________________________________________________________________
conv3_block2_1_conv (Conv2D)    (None, 28, 28, 128)  20480       conv3_block2_0_relu[0][0]        
__________________________________________________________________________________________________
conv3_block2_1_bn (BatchNormali (None, 28, 28, 128)  512         conv3_block2_1_conv[0][0]        
__________________________________________________________________________________________________
conv3_block2_1_relu (Activation (None, 28, 28, 128)  0           conv3_block2_1_bn[0][0]          
__________________________________________________________________________________________________
conv3_block2_2_conv (Conv2D)    (None, 28, 28, 32)   36864       conv3_block2_1_relu[0][0]        
__________________________________________________________________________________________________
conv3_block2_concat (Concatenat (None, 28, 28, 192)  0           conv3_block1_concat[0][0]        
                                                                 conv3_block2_2_conv[0][0]        
__________________________________________________________________________________________________
conv3_block3_0_bn (BatchNormali (None, 28, 28, 192)  768         conv3_block2_concat[0][0]        
__________________________________________________________________________________________________
conv3_block3_0_relu (Activation (None, 28, 28, 192)  0           conv3_block3_0_bn[0][0]          
__________________________________________________________________________________________________
conv3_block3_1_conv (Conv2D)    (None, 28, 28, 128)  24576       conv3_block3_0_relu[0][0]        
__________________________________________________________________________________________________
conv3_block3_1_bn (BatchNormali (None, 28, 28, 128)  512         conv3_block3_1_conv[0][0]        
__________________________________________________________________________________________________
conv3_block3_1_relu (Activation (None, 28, 28, 128)  0           conv3_block3_1_bn[0][0]          
__________________________________________________________________________________________________
conv3_block3_2_conv (Conv2D)    (None, 28, 28, 32)   36864       conv3_block3_1_relu[0][0]        
__________________________________________________________________________________________________
conv3_block3_concat (Concatenat (None, 28, 28, 224)  0           conv3_block2_concat[0][0]        
                                                                 conv3_block3_2_conv[0][0]        
==================================================================================================
Total params: 557,248
Trainable params: 0
Non-trainable params: 557,248
__________________________________________________________________________________________________
…
conv5_block16_2_conv
conv5_block16_concat
bn
relu
Concatenation success!
Fused-DenseNet-Tiny ready to connect with its ending layers!


PLEASE CHECK THE MODEL UP TO THE END
Fused-DenseNet-Tiny complete and ready for compilation and training!



Model: "fused_densenet_tiny"
__________________________________________________________________________________________________
Layer (type)                    Output Shape         Param #     Connected to                     
==================================================================================================
input_1_mirror_mirror (InputLay [(None, 224, 224, 3) 0                                            
__________________________________________________________________________________________________
zero_padding2d_4 (ZeroPadding2D (None, 230, 230, 3)  0           input_1_mirror_mirror[0][0]      
__________________________________________________________________________________________________
zero_padding2d_6_mirror (ZeroPa (None, 230, 230, 3)  0           input_1_mirror_mirror[0][0]      
__________________________________________________________________________________________________
conv1/conv (Conv2D)             (None, 112, 112, 64) 9408        zero_padding2d_4[0][0]           
__________________________________________________________________________________________________
conv1/conv_mirror (Conv2D)      (None, 112, 112, 64) 9408        zero_padding2d_6_mirror[0][0]    
__________________________________________________________________________________________________
conv1/bn (BatchNormalization)   (None, 112, 112, 64) 256         conv1/conv[0][0]                 
__________________________________________________________________________________________________
conv1/bn_mirror (BatchNormaliza (None, 112, 112, 64) 256         conv1/conv_mirror[0][0]          
__________________________________________________________________________________________________
conv1/relu (Activation)         (None, 112, 112, 64) 0           conv1/bn[0][0]                   
__________________________________________________________________________________________________
conv1/relu_mirror (Activation)  (None, 112, 112, 64) 0           conv1/bn_mirror[0][0]            
__________________________________________________________________________________________________
zero_padding2d_5 (ZeroPadding2D (None, 114, 114, 64) 0           conv1/relu[0][0]                 
__________________________________________________________________________________________________
zero_padding2d_7_mirror (ZeroPa (None, 114, 114, 64) 0           conv1/relu_mirror[0][0]          
__________________________________________________________________________________________________
pool1 (MaxPooling2D)            (None, 56, 56, 64)   0           zero_padding2d_5[0][0]           
__________________________________________________________________________________________________
pool1_mirror (MaxPooling2D)     (None, 56, 56, 64)   0           zero_padding2d_7_mirror[0][0]    
__________________________________________________________________________________________________
conv2_block1_0_bn (BatchNormali (None, 56, 56, 64)   256         pool1[0][0]                      
__________________________________________________________________________________________________
conv2_block1_0_bn_mirror (Batch (None, 56, 56, 64)   256         pool1_mirror[0][0]               
__________________________________________________________________________________________________
conv2_block1_0_relu (Activation (None, 56, 56, 64)   0           conv2_block1_0_bn[0][0]          
__________________________________________________________________________________________________
conv2_block1_0_relu_mirror (Act (None, 56, 56, 64)   0           conv2_block1_0_bn_mirror[0][0]   
__________________________________________________________________________________________________
conv2_block1_1_conv (Conv2D)    (None, 56, 56, 128)  8192        conv2_block1_0_relu[0][0]        
__________________________________________________________________________________________________
conv2_block1_1_conv_mirror (Con (None, 56, 56, 128)  8192        conv2_block1_0_relu_mirror[0][0] 
__________________________________________________________________________________________________
conv2_block1_1_bn (BatchNormali (None, 56, 56, 128)  512         conv2_block1_1_conv[0][0]        
__________________________________________________________________________________________________
conv2_block1_1_bn_mirror (Batch (None, 56, 56, 128)  512         conv2_block1_1_conv_mirror[0][0] 
__________________________________________________________________________________________________
conv2_block1_1_relu (Activation (None, 56, 56, 128)  0           conv2_block1_1_bn[0][0]          
__________________________________________________________________________________________________
conv2_block1_1_relu_mirror (Act (None, 56, 56, 128)  0           conv2_block1_1_bn_mirror[0][0]   
__________________________________________________________________________________________________
conv2_block1_2_conv (Conv2D)    (None, 56, 56, 32)   36864       conv2_block1_1_relu[0][0]        
__________________________________________________________________________________________________
conv2_block1_2_conv_mirror (Con (None, 56, 56, 32)   36864       conv2_block1_1_relu_mirror[0][0] 
__________________________________________________________________________________________________
conv2_block1_concat (Concatenat (None, 56, 56, 96)   0           pool1[0][0]                      
                                                                 conv2_block1_2_conv[0][0]        
__________________________________________________________________________________________________
conv2_block1_concat_mirror (Con (None, 56, 56, 96)   0           pool1_mirror[0][0]               
                                                                 conv2_block1_2_conv_mirror[0][0] 
__________________________________________________________________________________________________
conv2_block2_0_bn (BatchNormali (None, 56, 56, 96)   384         conv2_block1_concat[0][0]        
__________________________________________________________________________________________________
conv2_block2_0_bn_mirror (Batch (None, 56, 56, 96)   384         conv2_block1_concat_mirror[0][0] 
__________________________________________________________________________________________________
conv2_block2_0_relu (Activation (None, 56, 56, 96)   0           conv2_block2_0_bn[0][0]          
__________________________________________________________________________________________________
conv2_block2_0_relu_mirror (Act (None, 56, 56, 96)   0           conv2_block2_0_bn_mirror[0][0]   
__________________________________________________________________________________________________
conv2_block2_1_conv (Conv2D)    (None, 56, 56, 128)  12288       conv2_block2_0_relu[0][0]        
__________________________________________________________________________________________________
conv2_block2_1_conv_mirror (Con (None, 56, 56, 128)  12288       conv2_block2_0_relu_mirror[0][0] 
__________________________________________________________________________________________________
conv2_block2_1_bn (BatchNormali (None, 56, 56, 128)  512         conv2_block2_1_conv[0][0]        
__________________________________________________________________________________________________
conv2_block2_1_bn_mirror (Batch (None, 56, 56, 128)  512         conv2_block2_1_conv_mirror[0][0] 
__________________________________________________________________________________________________
conv2_block2_1_relu (Activation (None, 56, 56, 128)  0           conv2_block2_1_bn[0][0]          
__________________________________________________________________________________________________
conv2_block2_1_relu_mirror (Act (None, 56, 56, 128)  0           conv2_block2_1_bn_mirror[0][0]   
__________________________________________________________________________________________________
conv2_block2_2_conv (Conv2D)    (None, 56, 56, 32)   36864       conv2_block2_1_relu[0][0]        
__________________________________________________________________________________________________
conv2_block2_2_conv_mirror (Con (None, 56, 56, 32)   36864       conv2_block2_1_relu_mirror[0][0] 
__________________________________________________________________________________________________
conv2_block2_concat (Concatenat (None, 56, 56, 128)  0           conv2_block1_concat[0][0]        
                                                                 conv2_block2_2_conv[0][0]        
__________________________________________________________________________________________________
conv2_block2_concat_mirror (Con (None, 56, 56, 128)  0           conv2_block1_concat_mirror[0][0] 
                                                                 conv2_block2_2_conv_mirror[0][0] 
__________________________________________________________________________________________________
conv2_block3_0_bn (BatchNormali (None, 56, 56, 128)  512         conv2_block2_concat[0][0]        
__________________________________________________________________________________________________
conv2_block3_0_bn_mirror (Batch (None, 56, 56, 128)  512         conv2_block2_concat_mirror[0][0] 
__________________________________________________________________________________________________
conv2_block3_0_relu (Activation (None, 56, 56, 128)  0           conv2_block3_0_bn[0][0]          
__________________________________________________________________________________________________
conv2_block3_0_relu_mirror (Act (None, 56, 56, 128)  0           conv2_block3_0_bn_mirror[0][0]   
__________________________________________________________________________________________________
conv2_block3_1_conv (Conv2D)    (None, 56, 56, 128)  16384       conv2_block3_0_relu[0][0]        
__________________________________________________________________________________________________
conv2_block3_1_conv_mirror (Con (None, 56, 56, 128)  16384       conv2_block3_0_relu_mirror[0][0] 
__________________________________________________________________________________________________
conv2_block3_1_bn (BatchNormali (None, 56, 56, 128)  512         conv2_block3_1_conv[0][0]        
__________________________________________________________________________________________________
conv2_block3_1_bn_mirror (Batch (None, 56, 56, 128)  512         conv2_block3_1_conv_mirror[0][0] 
__________________________________________________________________________________________________
conv2_block3_1_relu (Activation (None, 56, 56, 128)  0           conv2_block3_1_bn[0][0]          
__________________________________________________________________________________________________
conv2_block3_1_relu_mirror (Act (None, 56, 56, 128)  0           conv2_block3_1_bn_mirror[0][0]   
__________________________________________________________________________________________________
conv2_block3_2_conv (Conv2D)    (None, 56, 56, 32)   36864       conv2_block3_1_relu[0][0]        
__________________________________________________________________________________________________
conv2_block3_2_conv_mirror (Con (None, 56, 56, 32)   36864       conv2_block3_1_relu_mirror[0][0] 
__________________________________________________________________________________________________
conv2_block3_concat (Concatenat (None, 56, 56, 160)  0           conv2_block2_concat[0][0]        
                                                                 conv2_block3_2_conv[0][0]        
__________________________________________________________________________________________________
conv2_block3_concat_mirror (Con (None, 56, 56, 160)  0           conv2_block2_concat_mirror[0][0] 
                                                                 conv2_block3_2_conv_mirror[0][0] 
__________________________________________________________________________________________________
conv2_block4_0_bn (BatchNormali (None, 56, 56, 160)  640         conv2_block3_concat[0][0]        
__________________________________________________________________________________________________
conv2_block4_0_bn_mirror (Batch (None, 56, 56, 160)  640         conv2_block3_concat_mirror[0][0] 
__________________________________________________________________________________________________
conv2_block4_0_relu (Activation (None, 56, 56, 160)  0           conv2_block4_0_bn[0][0]          
__________________________________________________________________________________________________
conv2_block4_0_relu_mirror (Act (None, 56, 56, 160)  0           conv2_block4_0_bn_mirror[0][0]   
__________________________________________________________________________________________________
conv2_block4_1_conv (Conv2D)    (None, 56, 56, 128)  20480       conv2_block4_0_relu[0][0]        
__________________________________________________________________________________________________
conv2_block4_1_conv_mirror (Con (None, 56, 56, 128)  20480       conv2_block4_0_relu_mirror[0][0] 
__________________________________________________________________________________________________
conv2_block4_1_bn (BatchNormali (None, 56, 56, 128)  512         conv2_block4_1_conv[0][0]        
__________________________________________________________________________________________________
conv2_block4_1_bn_mirror (Batch (None, 56, 56, 128)  512         conv2_block4_1_conv_mirror[0][0] 
__________________________________________________________________________________________________
conv2_block4_1_relu (Activation (None, 56, 56, 128)  0           conv2_block4_1_bn[0][0]          
__________________________________________________________________________________________________
conv2_block4_1_relu_mirror (Act (None, 56, 56, 128)  0           conv2_block4_1_bn_mirror[0][0]   
__________________________________________________________________________________________________
conv2_block4_2_conv (Conv2D)    (None, 56, 56, 32)   36864       conv2_block4_1_relu[0][0]        
__________________________________________________________________________________________________
conv2_block4_2_conv_mirror (Con (None, 56, 56, 32)   36864       conv2_block4_1_relu_mirror[0][0] 
__________________________________________________________________________________________________
conv2_block4_concat (Concatenat (None, 56, 56, 192)  0           conv2_block3_concat[0][0]        
                                                                 conv2_block4_2_conv[0][0]        
__________________________________________________________________________________________________
conv2_block4_concat_mirror (Con (None, 56, 56, 192)  0           conv2_block3_concat_mirror[0][0] 
                                                                 conv2_block4_2_conv_mirror[0][0] 
__________________________________________________________________________________________________
conv2_block5_0_bn (BatchNormali (None, 56, 56, 192)  768         conv2_block4_concat[0][0]        
__________________________________________________________________________________________________
conv2_block5_0_bn_mirror (Batch (None, 56, 56, 192)  768         conv2_block4_concat_mirror[0][0] 
__________________________________________________________________________________________________
conv2_block5_0_relu (Activation (None, 56, 56, 192)  0           conv2_block5_0_bn[0][0]          
__________________________________________________________________________________________________
conv2_block5_0_relu_mirror (Act (None, 56, 56, 192)  0           conv2_block5_0_bn_mirror[0][0]   
__________________________________________________________________________________________________
conv2_block5_1_conv (Conv2D)    (None, 56, 56, 128)  24576       conv2_block5_0_relu[0][0]        
__________________________________________________________________________________________________
conv2_block5_1_conv_mirror (Con (None, 56, 56, 128)  24576       conv2_block5_0_relu_mirror[0][0] 
__________________________________________________________________________________________________
conv2_block5_1_bn (BatchNormali (None, 56, 56, 128)  512         conv2_block5_1_conv[0][0]        
__________________________________________________________________________________________________
conv2_block5_1_bn_mirror (Batch (None, 56, 56, 128)  512         conv2_block5_1_conv_mirror[0][0] 
__________________________________________________________________________________________________
conv2_block5_1_relu (Activation (None, 56, 56, 128)  0           conv2_block5_1_bn[0][0]          
__________________________________________________________________________________________________
conv2_block5_1_relu_mirror (Act (None, 56, 56, 128)  0           conv2_block5_1_bn_mirror[0][0]   
__________________________________________________________________________________________________
conv2_block5_2_conv (Conv2D)    (None, 56, 56, 32)   36864       conv2_block5_1_relu[0][0]        
__________________________________________________________________________________________________
conv2_block5_2_conv_mirror (Con (None, 56, 56, 32)   36864       conv2_block5_1_relu_mirror[0][0] 
__________________________________________________________________________________________________
conv2_block5_concat (Concatenat (None, 56, 56, 224)  0           conv2_block4_concat[0][0]        
                                                                 conv2_block5_2_conv[0][0]        
__________________________________________________________________________________________________
conv2_block5_concat_mirror (Con (None, 56, 56, 224)  0           conv2_block4_concat_mirror[0][0] 
                                                                 conv2_block5_2_conv_mirror[0][0] 
__________________________________________________________________________________________________
conv2_block6_0_bn (BatchNormali (None, 56, 56, 224)  896         conv2_block5_concat[0][0]        
__________________________________________________________________________________________________
conv2_block6_0_bn_mirror (Batch (None, 56, 56, 224)  896         conv2_block5_concat_mirror[0][0] 
__________________________________________________________________________________________________
conv2_block6_0_relu (Activation (None, 56, 56, 224)  0           conv2_block6_0_bn[0][0]          
__________________________________________________________________________________________________
conv2_block6_0_relu_mirror (Act (None, 56, 56, 224)  0           conv2_block6_0_bn_mirror[0][0]   
__________________________________________________________________________________________________
conv2_block6_1_conv (Conv2D)    (None, 56, 56, 128)  28672       conv2_block6_0_relu[0][0]        
__________________________________________________________________________________________________
conv2_block6_1_conv_mirror (Con (None, 56, 56, 128)  28672       conv2_block6_0_relu_mirror[0][0] 
__________________________________________________________________________________________________
conv2_block6_1_bn (BatchNormali (None, 56, 56, 128)  512         conv2_block6_1_conv[0][0]        
__________________________________________________________________________________________________
conv2_block6_1_bn_mirror (Batch (None, 56, 56, 128)  512         conv2_block6_1_conv_mirror[0][0] 
__________________________________________________________________________________________________
conv2_block6_1_relu (Activation (None, 56, 56, 128)  0           conv2_block6_1_bn[0][0]          
__________________________________________________________________________________________________
conv2_block6_1_relu_mirror (Act (None, 56, 56, 128)  0           conv2_block6_1_bn_mirror[0][0]   
__________________________________________________________________________________________________
conv2_block6_2_conv (Conv2D)    (None, 56, 56, 32)   36864       conv2_block6_1_relu[0][0]        
__________________________________________________________________________________________________
conv2_block6_2_conv_mirror (Con (None, 56, 56, 32)   36864       conv2_block6_1_relu_mirror[0][0] 
__________________________________________________________________________________________________
conv2_block6_concat (Concatenat (None, 56, 56, 256)  0           conv2_block5_concat[0][0]        
                                                                 conv2_block6_2_conv[0][0]        
__________________________________________________________________________________________________
conv2_block6_concat_mirror (Con (None, 56, 56, 256)  0           conv2_block5_concat_mirror[0][0] 
                                                                 conv2_block6_2_conv_mirror[0][0] 
__________________________________________________________________________________________________
pool2_bn (BatchNormalization)   (None, 56, 56, 256)  1024        conv2_block6_concat[0][0]        
__________________________________________________________________________________________________
pool2_bn_mirror (BatchNormaliza (None, 56, 56, 256)  1024        conv2_block6_concat_mirror[0][0] 
__________________________________________________________________________________________________
pool2_relu (Activation)         (None, 56, 56, 256)  0           pool2_bn[0][0]                   
__________________________________________________________________________________________________
pool2_relu_mirror (Activation)  (None, 56, 56, 256)  0           pool2_bn_mirror[0][0]            
__________________________________________________________________________________________________
pool2_conv (Conv2D)             (None, 56, 56, 128)  32768       pool2_relu[0][0]                 
__________________________________________________________________________________________________
pool2_conv_mirror (Conv2D)      (None, 56, 56, 128)  32768       pool2_relu_mirror[0][0]          
__________________________________________________________________________________________________
pool2_pool (AveragePooling2D)   (None, 28, 28, 128)  0           pool2_conv[0][0]                 
__________________________________________________________________________________________________
pool2_pool_mirror (AveragePooli (None, 28, 28, 128)  0           pool2_conv_mirror[0][0]          
__________________________________________________________________________________________________
conv3_block1_0_bn (BatchNormali (None, 28, 28, 128)  512         pool2_pool[0][0]                 
__________________________________________________________________________________________________
conv3_block1_0_bn_mirror (Batch (None, 28, 28, 128)  512         pool2_pool_mirror[0][0]          
__________________________________________________________________________________________________
conv3_block1_0_relu (Activation (None, 28, 28, 128)  0           conv3_block1_0_bn[0][0]          
__________________________________________________________________________________________________
conv3_block1_0_relu_mirror (Act (None, 28, 28, 128)  0           conv3_block1_0_bn_mirror[0][0]   
__________________________________________________________________________________________________
conv3_block1_1_conv (Conv2D)    (None, 28, 28, 128)  16384       conv3_block1_0_relu[0][0]        
__________________________________________________________________________________________________
conv3_block1_1_conv_mirror (Con (None, 28, 28, 128)  16384       conv3_block1_0_relu_mirror[0][0] 
__________________________________________________________________________________________________
conv3_block1_1_bn (BatchNormali (None, 28, 28, 128)  512         conv3_block1_1_conv[0][0]        
__________________________________________________________________________________________________
conv3_block1_1_bn_mirror (Batch (None, 28, 28, 128)  512         conv3_block1_1_conv_mirror[0][0] 
__________________________________________________________________________________________________
conv3_block1_1_relu (Activation (None, 28, 28, 128)  0           conv3_block1_1_bn[0][0]          
__________________________________________________________________________________________________
conv3_block1_1_relu_mirror (Act (None, 28, 28, 128)  0           conv3_block1_1_bn_mirror[0][0]   
__________________________________________________________________________________________________
conv3_block1_2_conv (Conv2D)    (None, 28, 28, 32)   36864       conv3_block1_1_relu[0][0]        
__________________________________________________________________________________________________
conv3_block1_2_conv_mirror (Con (None, 28, 28, 32)   36864       conv3_block1_1_relu_mirror[0][0] 
__________________________________________________________________________________________________
conv3_block1_concat (Concatenat (None, 28, 28, 160)  0           pool2_pool[0][0]                 
                                                                 conv3_block1_2_conv[0][0]        
__________________________________________________________________________________________________
conv3_block1_concat_mirror (Con (None, 28, 28, 160)  0           pool2_pool_mirror[0][0]          
                                                                 conv3_block1_2_conv_mirror[0][0] 
__________________________________________________________________________________________________
conv3_block2_0_bn (BatchNormali (None, 28, 28, 160)  640         conv3_block1_concat[0][0]        
__________________________________________________________________________________________________
conv3_block2_0_bn_mirror (Batch (None, 28, 28, 160)  640         conv3_block1_concat_mirror[0][0] 
__________________________________________________________________________________________________
conv3_block2_0_relu (Activation (None, 28, 28, 160)  0           conv3_block2_0_bn[0][0]          
__________________________________________________________________________________________________
conv3_block2_0_relu_mirror (Act (None, 28, 28, 160)  0           conv3_block2_0_bn_mirror[0][0]   
__________________________________________________________________________________________________
conv3_block2_1_conv (Conv2D)    (None, 28, 28, 128)  20480       conv3_block2_0_relu[0][0]        
__________________________________________________________________________________________________
conv3_block2_1_conv_mirror (Con (None, 28, 28, 128)  20480       conv3_block2_0_relu_mirror[0][0] 
__________________________________________________________________________________________________
conv3_block2_1_bn (BatchNormali (None, 28, 28, 128)  512         conv3_block2_1_conv[0][0]        
__________________________________________________________________________________________________
conv3_block2_1_bn_mirror (Batch (None, 28, 28, 128)  512         conv3_block2_1_conv_mirror[0][0] 
__________________________________________________________________________________________________
conv3_block2_1_relu (Activation (None, 28, 28, 128)  0           conv3_block2_1_bn[0][0]          
__________________________________________________________________________________________________
conv3_block2_1_relu_mirror (Act (None, 28, 28, 128)  0           conv3_block2_1_bn_mirror[0][0]   
__________________________________________________________________________________________________
conv3_block2_2_conv (Conv2D)    (None, 28, 28, 32)   36864       conv3_block2_1_relu[0][0]        
__________________________________________________________________________________________________
conv3_block2_2_conv_mirror (Con (None, 28, 28, 32)   36864       conv3_block2_1_relu_mirror[0][0] 
__________________________________________________________________________________________________
conv3_block2_concat (Concatenat (None, 28, 28, 192)  0           conv3_block1_concat[0][0]        
                                                                 conv3_block2_2_conv[0][0]        
__________________________________________________________________________________________________
conv3_block2_concat_mirror (Con (None, 28, 28, 192)  0           conv3_block1_concat_mirror[0][0] 
                                                                 conv3_block2_2_conv_mirror[0][0] 
__________________________________________________________________________________________________
conv3_block3_0_bn (BatchNormali (None, 28, 28, 192)  768         conv3_block2_concat[0][0]        
__________________________________________________________________________________________________
conv3_block3_0_bn_mirror (Batch (None, 28, 28, 192)  768         conv3_block2_concat_mirror[0][0] 
__________________________________________________________________________________________________
conv3_block3_0_relu (Activation (None, 28, 28, 192)  0           conv3_block3_0_bn[0][0]          
__________________________________________________________________________________________________
conv3_block3_0_relu_mirror (Act (None, 28, 28, 192)  0           conv3_block3_0_bn_mirror[0][0]   
__________________________________________________________________________________________________
conv3_block3_1_conv (Conv2D)    (None, 28, 28, 128)  24576       conv3_block3_0_relu[0][0]        
__________________________________________________________________________________________________
conv3_block3_1_conv_mirror (Con (None, 28, 28, 128)  24576       conv3_block3_0_relu_mirror[0][0] 
__________________________________________________________________________________________________
conv3_block3_1_bn (BatchNormali (None, 28, 28, 128)  512         conv3_block3_1_conv[0][0]        
__________________________________________________________________________________________________
conv3_block3_1_bn_mirror (Batch (None, 28, 28, 128)  512         conv3_block3_1_conv_mirror[0][0] 
__________________________________________________________________________________________________
conv3_block3_1_relu (Activation (None, 28, 28, 128)  0           conv3_block3_1_bn[0][0]          
__________________________________________________________________________________________________
conv3_block3_1_relu_mirror (Act (None, 28, 28, 128)  0           conv3_block3_1_bn_mirror[0][0]   
__________________________________________________________________________________________________
conv3_block3_2_conv (Conv2D)    (None, 28, 28, 32)   36864       conv3_block3_1_relu[0][0]        
__________________________________________________________________________________________________
conv3_block3_2_conv_mirror (Con (None, 28, 28, 32)   36864       conv3_block3_1_relu_mirror[0][0] 
__________________________________________________________________________________________________
conv3_block3_concat (Concatenat (None, 28, 28, 224)  0           conv3_block2_concat[0][0]        
                                                                 conv3_block3_2_conv[0][0]        
__________________________________________________________________________________________________
conv3_block3_concat_mirror (Con (None, 28, 28, 224)  0           conv3_block2_concat_mirror[0][0] 
                                                                 conv3_block3_2_conv_mirror[0][0] 
__________________________________________________________________________________________________
add (Add)                       (None, 28, 28, 224)  0           conv3_block3_concat[0][0]        
                                                                 conv3_block3_concat_mirror[0][0] 
__________________________________________________________________________________________________
global_average_pooling2d (Globa (None, 224)          0           add[0][0]                        
__________________________________________________________________________________________________
dense (Dense)                   (None, 512)          115200      global_average_pooling2d[0][0]   
__________________________________________________________________________________________________
dropout (Dropout)               (None, 512)          0           dense[0][0]                      
__________________________________________________________________________________________________
Softmax_Classifier (Dense)      (None, 3)            1539        dropout[0][0]                    
==================================================================================================
Total params: 1,231,235
Trainable params: 668,355
Non-trainable params: 562,880
__________________________________________________________________________________________________
Building of the Fused-DenseNet-Tiny COMPLETE!

Epoch 1/12
748/748 [==============================] - 204s 267ms/step - loss: 0.7178 - accuracy: 0.6908
…
