…
2021-05-26 21:05:51.845250: I tensorflow/core/common_runtime/gpu/gpu_device.cc:1406] Created TensorFlow device (/job:localhost/replica:0/task:0/device:GPU:0 with 1342 MB memory) -> physical GPU (device: 0, name: NVIDIA GeForce MX250, pci bus id: 0000:02:00.0, compute capability: 6.1)
2021-05-26 21:05:51.846430: I tensorflow/compiler/jit/xla_gpu_device.cc:99] Not creating XLA devices, tf_xla_enable_xla_devices not set
Model: "sequential"
_________________________________________________________________
Layer (type)                 Output Shape              Param #   
=================================================================
conv2d (Conv2D)              (None, 224, 224, 32)      896       
_________________________________________________________________
conv2d_1 (Conv2D)            (None, 224, 224, 64)      18496     
_________________________________________________________________
max_pooling2d (MaxPooling2D) (None, 112, 112, 64)      0         
_________________________________________________________________
conv2d_2 (Conv2D)            (None, 112, 112, 128)     73856     
_________________________________________________________________
conv2d_3 (Conv2D)            (None, 112, 112, 128)     147584    
_________________________________________________________________
max_pooling2d_1 (MaxPooling2 (None, 56, 56, 128)       0         
_________________________________________________________________
conv2d_4 (Conv2D)            (None, 56, 56, 256)       295168    
_________________________________________________________________
conv2d_5 (Conv2D)            (None, 56, 56, 256)       590080    
_________________________________________________________________
conv2d_6 (Conv2D)            (None, 56, 56, 256)       590080    
_________________________________________________________________
max_pooling2d_2 (MaxPooling2 (None, 28, 28, 256)       0         
_________________________________________________________________
conv2d_7 (Conv2D)            (None, 28, 28, 512)       1180160   
_________________________________________________________________
conv2d_8 (Conv2D)            (None, 28, 28, 512)       2359808   
_________________________________________________________________
conv2d_9 (Conv2D)            (None, 28, 28, 512)       2359808   
_________________________________________________________________
max_pooling2d_3 (MaxPooling2 (None, 14, 14, 512)       0         
_________________________________________________________________
conv2d_10 (Conv2D)           (None, 14, 14, 512)       2359808   
_________________________________________________________________
conv2d_11 (Conv2D)           (None, 14, 14, 512)       2359808   
_________________________________________________________________
conv2d_12 (Conv2D)           (None, 14, 14, 512)       2359808   
_________________________________________________________________
max_pooling2d_4 (MaxPooling2 (None, 7, 7, 512)         0         
_________________________________________________________________
flatten (Flatten)            (None, 25088)             0         
_________________________________________________________________
dense (Dense)                (None, 1024)              25691136  
_________________________________________________________________
dropout (Dropout)            (None, 1024)              0         
_________________________________________________________________
dense_1 (Dense)              (None, 3)                 3075      
=================================================================
Total params: 40,389,571
Trainable params: 40,389,571
Non-trainable params: 0
_________________________________________________________________
------------------------------------------------------------------------
Training for fold1
C:\Users\Daniel-PC\PycharmProjects\cnn\venv\lib\site-packages\keras_preprocessing\image\image_data_generator.py:720: UserWarning: This ImageDataGenerator specifies `featurewise_center`, but it hasn't been fit on any training data. Fit it first by calling `.fit(numpy_data)`.
…
